Model
________________________________________________________________________________
Layer (type)                        Output Shape                    Param #     
================================================================================
dense_1 (Dense)                     (None, 128)                     100480      
________________________________________________________________________________
dropout_1 (Dropout)                 (None, 128)                     0           
________________________________________________________________________________
dense_2 (Dense)                     (None, 128)                     16512       
________________________________________________________________________________
dropout_2 (Dropout)                 (None, 128)                     0           
________________________________________________________________________________
dense_3 (Dense)                     (None, 10)                      1290        
================================================================================
Total params: 118,282
Trainable params: 118,282
Non-trainable params: 0
________________________________________________________________________________


